CpG/model.pth (torch, 200791 bytes, 5 tensors)

lstm.weight_ih_l0 f4 [256, 128]
0	0xbc7e4a7b	-0.015520687
1	0x3da9e660	0.08295894
2	0x3e27d014	0.1638797
3	0xbd0c438f	-0.034244116
4	0xbd00dfd0	-0.031463444
5	0x3de7065c	0.1128051
6	0x3ca83d4f	0.020537047
7	0x3e352475	0.17689689
8	0x3e557226	0.20844325
9	0x3c34c8cc	0.011034202
10	0xbc92816f	-0.017883984
11	0x3d8bffda	0.06835909
12	0x3e424143	0.18970208
13	0x3da6ebe2	0.0815046
14	0x3dc534e4	0.09629229
15	0x3cf025f0	0.029314965
16	0x3ca7c68a	0.020480413
17	0x3d404056	0.046936356
18	0x3e2fe2d3	0.1717637
19	0xbc211482	-0.00983155
20	0x3e522025	0.20520075
21	0x3d957384	0.072974235
22	0x3d6b3f31	0.05743331
23	0x3e27d4ac	0.16389722
24	0x3e4bbaca	0.19895473
25	0x3d2f44f3	0.042790364
26	0x3d82e0ce	0.06390534
27	0x3e112493	0.14174108
28	0x3d946fbe	0.07247876
29	0x3c9d240b	0.019182226
30	0xbcdab4f9	-0.026697623
31	0x3caf92bb	0.021432271
32	0x3de87c2f	0.11351811
33	0x3e2c5c71	0.16832139
34	0x3e5488d7	0.20755325
35	0x3cf4f252	0.029900704
36	0x3d84a6cd	0.06477127
37	0x3d1ab940	0.037774324
38	0x3e162671	0.14663102
39	0x3994adfb	0.00028358385
40	0x3e49cf9c	0.19708103
41	0xbcca621a	-0.024704982
42	0x3e219d8b	0.15782754
43	0x3d858e64	0.065212995
44	0x3e19ca8c	0.15018672
45	0x3e2a4ac6	0.16630086
46	0x3e4b6e02	0.19866183
47	0x3d54b3a6	0.05192914
48	0x3b5790be	0.003289267
49	0x3e358b22	0.17728856
50	0x3e00efe3	0.1259151
51	0x3ddfe03f	0.109314434
52	0x3cb0ca60	0.021580875
53	0x3e449b18	0.19199789
54	0x3e0c14dd	0.13679834
55	0x3dc06d98	0.09395903
56	0x3c9bf76d	0.01903888
57	0x3df7b15d	0.12094376
58	0xbbffdcd5	-0.0078083077
59	0x3ded4c1b	0.115867816
60	0xbc8737ef	-0.016506163
61	0x3d7208a7	0.059090283
62	0x3d69d9e3	0.05709256
63	0x3d49c612	0.04926116
64	0xbcc18c17	-0.02362637
65	0xbcf9fe88	-0.030516878
66	0x3d5c6284	0.05380489
67	0x3ddc87de	0.10768102
68	0x3e305dfd	0.17223354
69	0x3e5085b5	0.20363505
70	0x3df08768	0.11744577
71	0xbccd81d5	-0.025086323
72	0xbd0e9a81	-0.034815315
73	0x3d177c20	0.03698361
74	0x3c8148e7	0.015781833
75	0x3dcb5f05	0.09930233
76	0x3d2cf67b	0.04222725
77	0x3bb3653d	0.005474715
78	0xbc79b478	-0.015240781
79	0x3de6acaa	0.11263402
80	0x3e41bda1	0.18919994
81	0x3ca62c3d	0.020284766
82	0xbced0e6e	-0.028937545
83	0x3e4b4d77	0.19853769
84	0xba1b1125	-0.00059153355
85	0x3e1cea12	0.15323666
86	0x3dd92dc3	0.106044315
87	0x3e2f93bd	0.17146201
88	0x3ccafed8	0.024779722
89	0x3e10e49f	0.14149712
90	0x3e17e98d	0.14835186
91	0x3e1d84cd	0.1538269
92	0xbc3372e8	-0.010952689
93	0x3df35a78	0.1188249
94	0x3e1b844f	0.1518719
95	0xbc8f0de0	-0.01746267
96	0x3e138a70	0.14408278
97	0x3df070ae	0.11740242
98	0x3d710a23	0.058847558
99	0x3d9cb8c4	0.07652429
100	0x3df79910	0.12089741
101	0xbcb287e5	-0.021793315
102	0x3d469425	0.048481125
103	0xbbe10403	-0.0068669333
104	0x3d2f6ad4	0.04282649
105	0x3c7320ef	0.014839395
106	0x3d04f4fe	0.032460205
107	0x3e3a93b6	0.1822041
108	0x3e358fc8	0.1773063
109	0x3e2d485e	0.16922137
110	0x3e349fad	0.17639036
111	0xbafdd67a	-0.0019366287
112	0xbcdee0ec	-0.02720686
113	0x3daf9e74	0.085751444
114	0xbc386c3b	-0.011256273
115	0x3e47331a	0.19453087
116	0x3e2ffabe	0.17185494
117	0x3de7ba69	0.11314852
118	0x3df7fb2a	0.121084526
119	0x3cd23ace	0.025662806
120	0x3db23d56	0.08703105
121	0x3dc1895b	0.094500266
122	0x3dedbeec	0.11608681
123	0x3de9db1f	0.11418747
124	0x3e4cc561	0.19997169
125	0x3d01f86a	0.031731047
126	0x3e1c1a26	0.1524435
127	0x3dcd86f0	0.10035503
128	0x3dbb8ca2	0.09157683
129	0x3e258169	0.16162647
130	0x3e9c8210	0.3056798
131	0x3e870675	0.26372114
132	0x3eb5d159	0.35511282
133	0x3e539d6c	0.2066552
134	0xbe103b91	-0.14085223
135	0x3e96309c	0.2933396
136	0xbd16dbcc	-0.03683071
137	0x3d34954f	0.044087704
138	0x3e76af75	0.24090369
139	0x3e9d2821	0.30694678
140	0x3d38a42b	0.045078438
141	0x3e46c15d	0.194097
142	0x3e0ff040	0.14056492
143	0x3e7f7b8a	0.2494947
144	0x3d7d80ce	0.061890416
145	0x3e9a7277	0.30165455
146	0x3e678f65	0.22613294
147	0x3e0efebe	0.13964364
148	0xbb87093c	-0.004120974
149	0x3e86f2ec	0.2635721
150	0x3e3254ef	0.17415212
151	0x3e0cb096	0.13739237
152	0x3d1e5887	0.038658645
153	0x3e8cdfac	0.27514398
154	0x3df0732f	0.117407195
155	0x3e24e9be	0.1610479
156	0x3e0b5153	0.13605241
157	0x3e8ccb88	0.27499032
158	0x3da52028	0.08062774
159	0x3cb2762e	0.021784868
160	0x3e1aca01	0.15116121
161	0x3e8ea5db	0.27860913
162	0x3e1902aa	0.14942423
163	0x3e9a249d	0.3010606
164	0x3e01330f	0.12617134
165	0x3ed7ba9e	0.42134565
166	0x3e7351d3	0.23761682
167	0x3eb40431	0.35159448
168	0x3e2108a3	0.15725951
169	0x3d163be7	0.03667822
170	0x3ecd2b7d	0.4007224
171	0x3cc7c762	0.024387065
172	0x3ea76fba	0.32702428
173	0x3e842fc9	0.25817707
174	0x3e1ca093	0.15295629
175	0x3e00997f	0.12558554
176	0x3ec2f284	0.3807565
177	0x3eaa15f3	0.3321987
178	0x3e943484	0.28946316
179	0x3df981f0	0.12182987
180	0x3dbb30ec	0.091401905
181	0x3e562b88	0.20915043
182	0x3e4f3692	0.2023566
183	0x3e6e3bf6	0.23265061
184	0x3e1a9bb5	0.1509846
185	0x3e4777b5	0.19479258
186	0x3e514203	0.20435338
187	0x3e2f8c73	0.17143421
188	0x3e5067a7	0.2035204
189	0x3e16c24d	0.14722557
190	0x3ec1f948	0.378855
191	0x3dbb05cf	0.09131967
192	0x3e6767c5	0.22598179
193	0x3e2253b2	0.1585224
194	0x3edac047	0.4272482
195	0x3da3481e	0.0797274
196	0x3d8d73f0	0.06906879
197	0x3db39ee8	0.08770543
198	0x3ec0aad5	0.37630334
199	0x3e71529f	0.23566674
200	0x3e689e4c	0.22716635
201	0x3e37fbf4	0.17967206
202	0x3e681927	0.22665845
203	0x3e9c0ed8	0.30480075
204	0x3dcc9477	0.09989255
205	0x3dc034bb	0.093850575
206	0x3ec6bcae	0.38815826
207	0x3ed60b9d	0.41805735
208	0x3e5c2088	0.21496785
209	0x3e1376d3	0.14400797
210	0x3e611c9c	0.2198357
211	0x3d97e8c1	0.07417441
212	0x3e40d262	0.18830255
213	0x3e8266f5	0.25469175
214	0x3e20b4a8	0.15693915
215	0x3d5686c6	0.052374624
216	0x3da2161c	0.07914373
217	0x3eb7ab89	0.35873058
218	0x3e1d0bf6	0.15336594
219	0x3e7fc9b2	0.24979284
220	0x3e93d9f2	0.28877217
221	0x3eba3a67	0.36372682
222	0x3c724768	0.014787532
223	0x3e32bbc6	0.17454442
224	0x3ebfc44a	0.37454444
225	0x3e7ccaf8	0.24686801
226	0x3e346d49	0.17619814
227	0x3e0fa973	0.14029483
228	0x3e855c5a	0.2604702
229	0x3ea02f37	0.31286022
230	0x3df0d0e3	0.11758592
231	0x3e9108a8	0.28326917
232	0x3e094db7	0.13408552
233	0x3e25826f	0.16163038
234	0x3e856ebf	0.26061055
235	0x3de54cc2	0.11196281
236	0x3e4d5cdf	0.20054959
237	0x3f0b2dba	0.5436665
238	0x3ea94400	0.33059692
239	0x3e9387af	0.28814456
240	0x3e2f9560	0.17146826
241	0x3e429ef2	0.19005945
242	0x3e18fe6d	0.14940806
243	0x3e95fe58	0.2929561
244	0x3e3acbfb	0.18241875
245	0x3e4fc4f6	0.20289978
246	0x3ed355d5	0.41276422
247	0x3e8d1b7f	0.2756004
248	0x3e9ca209	0.30592373
249	0x3e8610b6	0.26184624
250	0x3d8b2627	0.06794386
251	0x3e9cb9cc	0.30610502
252	0x3da1ab59	0.0789401
253	0x3e182fac	0.14861935
254	0xbdf4ef7d	-0.11959741
255	0x3d918eb7	0.07107299

lstm.weight_hh_l0 f4 [256, 64]
0	0xbddc4ba2	-0.10756613
1	0x3ce1f1e0	0.027581155
2	0x3d50fe9c	0.051024064
3	0xbb398d00	-0.0028312802
4	0x3d01fe28	0.031736523
5	0xbd90acb2	-0.07064189
6	0x3cad8a10	0.021183997
7	0x3dd557c8	0.104171336
8	0x3dc7c254	0.09753862
9	0xbd63146c	-0.055439398
10	0xbd84ef6a	-0.06490977
11	0xbdbbe3e6	-0.091743276
12	0xbd090b78	-0.033458203
13	0x3ceb5d08	0.028730884
14	0xbdae5b40	-0.08513498
15	0x3d4287a8	0.047492653
16	0xbdd8019a	-0.105471805
17	0x3c8a41a0	0.016876996
18	0x3d7a9618	0.061178297
19	0x3d88476a	0.06654246
20	0xbd96327c	-0.07333848
21	0x3ced09d8	0.028935358
22	0x39c00e00	0.00036631525
23	0xbdc7c202	-0.09753801
24	0xbddc0056	-0.107422516
25	0xbcba88c0	-0.022770286
26	0x3c2d2480	0.010567784
27	0xbd4f1694	-0.05055864
28	0xbd9d71ca	-0.07687719
29	0xbd0c86f4	-0.03430839
30	0xbcce9e68	-0.025222018
31	0xbda8e8da	-0.08247538
32	0x3dd9c1c4	0.10632661
33	0xbdb949a0	-0.09047246
34	0x3dc6e93a	0.09712453
35	0x3d6931b8	0.05693218
36	0x3d7f7c2c	0.06237428
37	0xbdf2ac48	-0.11849266
38	0xbc4381d0	-0.011932805
39	0x3d895d10	0.067072034
40	0xbdfbf2e6	-0.123021886
41	0x3df1100c	0.11770639
42	0xbdc6ea66	-0.09712677
43	0x3dfdc2da	0.123906806
44	0x3c984bb0	0.018590778
45	0x3dec57ca	0.11540182
46	0xbdeff290	-0.11716187
47	0xbd70d2f4	-0.05879493
48	0xbd80e8e2	-0.06294419
49	0xbccffb00	-0.02538824
50	0x3de35cee	0.11101709
51	0x3c54c6a0	0.012986809
52	0xbd84fd52	-0.064936295
53	0xbdd21b70	-0.102591395
54	0x3d6ebdac	0.058286354
55	0xbd3cf9d4	-0.046136692
56	0x3de0b43c	0.10971877
57	0x3b321180	0.0027171075
58	0x3d68b1f4	0.056810334
59	0x3dbb112c	0.09134135
60	0xbb564b80	-0.003269881
61	0x3d893c8e	0.06701003
62	0x3d05cffc	0.032669052
63	0x3db5aa98	0.08870429
64	0xbdd5d11e	-0.104402766
65	0x3db3e908	0.087846816
66	0x3d473678	0.04863593
67	0xbda86faa	-0.08224423
68	0xbb7b63c0	-0.0038359016
69	0x3c468170	0.012115821
70	0x3c3e2a10	0.011606708
71	0x3df3c8f4	0.11903563
72	0xbd4ee648	-0.050512582
73	0xbd89baa4	-0.06725052
74	0xbdfe2b40	-0.12410593
75	0xbdabe52a	-0.08393319
76	0x3ded4e1c	0.11587164
77	0x3deac592	0.11463465
78	0xbd64930c	-0.055804297
79	0x3d34fbf0	0.04418558
80	0xbd096b98	-0.033549875
81	0x3c715460	0.014729589
82	0x3de13804	0.10997012
83	0x3d45cc64	0.048290625
84	0xbda14986	-0.078753516
85	0xbda4df54	-0.08050409
86	0x3daa74de	0.08323072
87	0x3cebc330	0.028779596
88	0x3b8c8fe0	0.004289612
89	0x3c8dd498	0.017313287
90	0x3deb39c6	0.11485629
91	0xbc318bc0	-0.010836542
92	0xbd360a04	-0.044443145
93	0x3daba71c	0.08381483
94	0x3d429644	0.047506586
95	0xbd794cc4	-0.060864225
96	0xbc21b3d0	-0.009869531
97	0x3c5c75c0	0.013455808
98	0xbd943858	-0.07237309
99	0xbddbcc66	-0.10732345
100	0xbd2c21e4	-0.042024508
101	0xbc7f2130	-0.015571877
102	0xbcc38d58	-0.023871109
103	0xbc82f498	-0.015985772
104	0xbdfe8e4c	-0.12429485
105	0xbd470574	-0.048589185
106	0xbdec557a	-0.11539741
107	0xbcce0a50	-0.025151402
108	0x3c8e2ca0	0.017355263
109	0xbd8e78ee	-0.06956659
110	0x3c61ce30	0.013782069
111	0x3d97f87e	0.07420443
112	0x3d211ff8	0.03933713
113	0xbdf99aca	-0.12187727
114	0xbd2d52dc	-0.04231535
115	0x3daeb848	0.085312426
116	0x3d2981b4	0.04138346
117	0xbd43ac60	-0.04777181
118	0x3d66b594	0.05632551
119	0x3d8a3434	0.06748238
120	0xbc93ffe8	-0.018066362
121	0x3dc21112	0.09475912
122	0xbd1651b4	-0.036699012
123	0xbd9b3c92	-0.07579912
124	0x3df5aa1a	0.11995335
125	0x3cb5e6f0	0.022204846
126	0xbc754920	-0.014971048
127	0x3de30b18	0.110861
128	0xbdacdec4	-0.08440927
129	0xbce0e0c0	-0.02745092
130	0xbdfe0c6c	-0.12404713
131	0xbdc25b28	-0.09490043
132	0xbdbc2a96	-0.0918781
133	0xbd89272a	-0.06696923
134	0xbbe10ae0	-0.0068677515
135	0x3d7822bc	0.06058
136	0xbdbeb6e0	-0.093122244
137	0xbd42e774	-0.047584012
138	0x3cbf4bf0	0.02335164
139	0xbc9e3298	-0.019311234
140	0xbd85e6b4	-0.06538144
141	0x3d52d2dc	0.051470622
142	0xbddd39ca	-0.10802038
143	0x3d85b56c	0.06528744
144	0x3da15b82	0.07878782
145	0xbc3845e0	-0.011247128
146	0x3a4f5500	0.00079090893
147	0x3d8c0ce0	0.06838393
148	0x3d4f7f10	0.050658286
149	0xbdc8069c	-0.09766886
150	0xbdbea354	-0.09308496
151	0x3ccb82a0	0.02484256
152	0xbddc0872	-0.10743798
153	0xbdfae23a	-0.122501805
154	0x3d186a58	0.037210792
155	0x3d95d718	0.073164165
156	0xbdf5c3ec	-0.1200026
157	0x3dfa1dd8	0.122127235
158	0xbb8bf940	-0.0042716563
159	0x3dc86dc8	0.09786564
160	0x3bdffe60	0.006835744
161	0x3da080e2	0.078370824
162	0xbd7d702c	-0.061874554
163	0x3d676634	0.056493953
164	0xbdb6fd70	-0.08935058
165	0xbd978cbe	-0.07399891
166	0x3c775010	0.015094772
167	0xbd8714a4	-0.06595734
168	0x3dd67132	0.10470809
169	0x3d374dc0	0.044751883
170	0x3bb70020	0.0055847317
171	0xbd444794	-0.047919825
172	0xbdd7e0ee	-0.10540949
173	0xbd941e2c	-0.07232317
174	0xbd95edd0	-0.0732075
175	0x3d517638	0.051138133
176	0xbd242434	-0.04007359
177	0xbddb41a6	-0.10705881
178	0xbdebad5e	-0.115076765
179	0xbdeb50f0	-0.11490047
180	0x3d9241d6	0.071414635
181	0xbd205350	-0.039141953
182	0x3dde080c	0.108413786
183	0xbdd44e8a	-0.10366543
184	0x3dd08eec	0.1018351
185	0xbd150838	-0.03638479
186	0xbc6bbad0	-0.014387801
187	0x3b197c80	0.0023420155
188	0x3db9ba58	0.090687454
189	0x3c2091e0	0.009800404
190	0xbda1e62a	-0.079052284
191	0xbd921e60	-0.071347
192	0xbd99d7ce	-0.075118646
193	0xbd676620	-0.05649388
194	0xbd8afe16	-0.06786744
195	0xbd93e0c4	-0.07220605
196	0xbdda9626	-0.1067317
197	0xbdfd5ce8	-0.12371236
198	0xbd8d0bce	-0.06887017
199	0xbdd75784	-0.10514739
200	0xbdb6c1f2	-0.08923711
201	0x3de52eb6	0.1119055
202	0xbd9fc978	-0.07802099
203	0xbd4074d0	-0.0469864
204	0x3de05cb6	0.10955183
205	0xbd5790b4	-0.052628234
206	0xbd8cdee2	-0.06878449
207	0x3de52620	0.111889124
208	0x3da8a7c4	0.08235124
209	0xbd499348	-0.049212724
210	0xbd26dbfc	-0.040737137
211	0x3ce03a58	0.02737157
212	0x3dbf01ee	0.0932654
213	0xbdb3c434	-0.08777657
214	0x3d3896e4	0.045065776
215	0x3d510d70	0.051038206
216	0xbc6b3fa0	-0.014358431
217	0x3bd7e860	0.0065889806
218	0xbd531860	-0.051536918
219	0x3de9aca4	0.11409882
220	0xbd4ccdf4	-0.0500011
221	0x3cff7628	0.031184271
222	0x3dd79588	0.10526568
223	0xbdcf8752	-0.10133232
224	0xbdb7ad70	-0.089686275
225	0xbc9350f0	-0.01798293
226	0x3db7cf3c	0.08975074
227	0x3d948342	0.07251598
228	0x3dea1f16	0.114317104
229	0xbdad020c	-0.08447656
230	0x3de44d64	0.111475736
231	0x3c43a100	0.011940241
232	0x3d84fb7a	0.06493278
233	0x3c7789d0	0.015108541
234	0x3d4407ec	0.047859117
235	0xbd262e8c	-0.040571734
236	0x3dc33dc8	0.09533268
237	0x3dac8de0	0.08425498
238	0x3debefa6	0.11520319
239	0xbd013028	-0.031540066
240	0x3d79ced0	0.060988247
241	0xbc22b240	-0.009930193
242	0x3df57516	0.11985223
243	0x3dd37af2	0.10326184
244	0x3db6f77c	0.08933923
245	0x3c87ea20	0.016591132
246	0xbdecb9b0	-0.115588546
247	0xbd4f87c8	-0.0506666
248	0x3d3ff948	0.046868593
249	0xbdc57928	-0.09642249
250	0xbd24c884	-0.04023029
251	0x3b304a40	0.0026899725
252	0x3d7f11e4	0.06227292
253	0xbd161e14	-0.03664978
254	0x3b9c9ae0	0.0047792047
255	0xbcfb5728	-0.030681208

lstm.bias_ih_l0 f4 [256]
0	0x3bb6d0b1	0.005579077
1	0x3ea19c24	0.31564438
2	0x3dd8b79a	0.10581894
3	0x3e4e6ab0	0.20157886
4	0xbcc23294	-0.023705758
5	0x3e1aaa0d	0.15103932
6	0xbe2b2251	-0.1671231
7	0xbca9108d	-0.020637775
8	0x3d0dbec3	0.034605753
9	0xbe0134a8	-0.12617743
10	0x3e1c5bc0	0.15269375
11	0x3df420c6	0.119203135
12	0xbdfa71fe	-0.122287735
13	0x3e4c290d	0.19937535
14	0xbd082bf4	-0.033245042
15	0x3d8856c1	0.06657172
16	0xbc622310	-0.013802305
17	0x3ba3cfc6	0.0049991338
18	0x3e755e71	0.23961808
19	0xbc953934	-0.018215753
20	0x3e0d23a2	0.13783124
21	0x3e092075	0.13391288
22	0x3d95821a	0.073002055
23	0xbb2b4611	-0.0026134292
24	0x3e44e475	0.19227774
25	0xbbc3b96c	-0.0059730317
26	0x3e0cb18c	0.13739604
27	0x3e2fda65	0.17173155
28	0xbdb293f5	-0.08719627
29	0x3d9b6ba4	0.0758889
30	0x3c9b202d	0.018936241
31	0xbddb9c83	-0.107232116
32	0xbca28f52	-0.019843731
33	0x3dcafae3	0.09911134
34	0xbe36d3c8	-0.17854226
35	0xbcc4d5a6	-0.024027657
36	0xbc6768b0	-0.014124081
37	0x3e238568	0.15968859
38	0xbcc48ce1	-0.023992958
39	0xbe3cdc92	-0.18443516
40	0xbcdb7abf	-0.026791928
41	0x3bd3625d	0.006450935
42	0x3e0dc570	0.13844848
43	0x3d97a200	0.07403946
44	0x3e43d907	0.19125758
45	0x3d70dd15	0.05880459
46	0x3ddbb1e0	0.10727286
47	0x3b7245c8	0.0036967862
48	0x3e4ad65a	0.19808331
49	0x3c08b219	0.008343243
50	0xbd576d98	-0.05259475
51	0x3d82df9a	0.06390305
52	0x3e1a9464	0.15095669
53	0x3aa1648c	0.001231329
54	0xbcb50e21	-0.022101464
55	0xbd88ba4d	-0.06676159
56	0x3dbe964e	0.09306012
57	0xbc058192	-0.008148568
58	0xbe28b61f	-0.16475724
59	0xbd085ef3	-0.033293676
60	0xbda438d3	-0.08018651
61	0x3d48fcc9	0.0490692
62	0xbc8d8bd6	-0.017278593
63	0x3e122c26	0.14274654
64	0xbdc6a804	-0.09700015
65	0x3d1ee06c	0.038788244
66	0x3bd3d480	0.006464541
67	0xbdeb0db6	-0.114772245
68	0xbd9fc002	-0.078002945
69	0xbcc75220	-0.024331152
70	0x3dc1f594	0.094706684
71	0xbdce9e42	-0.10088779
72	0x3d5b6928	0.05356708
73	0x3dbd9578	0.092570245
74	0x3da22c6c	0.07918629
75	0x3d816368	0.06317788
76	0x3d0697d0	0.032859623
77	0xbd7650c4	-0.060135618
78	0x3c811820	0.015758574
79	0x3df85faa	0.121276215
80	0xbdebcc5a	-0.11513586
81	0x3dd67e38	0.10473293
82	0x3dfa34f8	0.12217134
83	0x3ddea24c	0.108707994
84	0xbded70e0	-0.11593795
85	0x3c0253d0	0.007954553
86	0xbd12f9d0	-0.03588277
87	0x3d1b01ec	0.03784363
88	0xbd9c47da	-0.07630892
89	0x3d0f3d28	0.034970433
90	0x3db2f30c	0.08737764
91	0x3d9abb66	0.07555275
92	0x3d961848	0.0732885
93	0x3d46540c	0.048419997
94	0x3dd2d1d2	0.10293926
95	0x3d5c1974	0.05373521
96	0x3b886520	0.0041624457
97	0x3d8874ba	0.06662889
98	0x3d2af964	0.041741744
99	0xbd333f60	-0.04376161
100	0xbd9efd2e	-0.07763134
101	0xbdaf0ad4	-0.08546987
102	0xbd9a5b3e	-0.07536934
103	0xbd23ff84	-0.0400386
104	0xbcca1880	-0.024669886
105	0xbdd37fa6	-0.103270814
106	0x3df29c60	0.118462324
107	0xbd63b558	-0.055592865
108	0x3d3a78a8	0.045525223
109	0xbd3687ac	-0.04456298
110	0x3d9450e8	0.07241994
111	0xbb1d2100	-0.0023975968
112	0xbdf17318	-0.117895305
113	0xbd87dc8c	-0.06633863
114	0x3dac1476	0.0840234
115	0xbd1b9118	-0.03798017
116	0xbd9620ca	-0.07330473
117	0x3d8f26c2	0.06989814
118	0xbdfe22da	-0.12408991
119	0x3dbb1d4e	0.09136449
120	0x3b7ef100	0.0038900971
121	0x3d88ce1a	0.06679936
122	0x3dd9ac74	0.10628596
123	0x3da07146	0.07834105
124	0xbcc7c6f0	-0.024386853
125	0xbdbd9ba4	-0.09258202
126	0x3d586bd4	0.052837208
127	0x3ca83fd8	0.020538256
128	0xbe275b90	-0.16343522
129	0xbc6fcb14	-0.01463582
130	0x3c7deebb	0.015498812
131	0x3d734f66	0.059401892
132	0xbdaef5fc	-0.085430115
133	0xbe265c82	-0.16246226
134	0xbd834a3d	-0.06410644
135	0x3db70345	0.089361705
136	0x3e0174b0	0.12642169
137	0x3e315595	0.17317803
138	0xbba62951	-0.0050708433
139	0xbdc53216	-0.09628694
140	0xbdde00b0	-0.10839975
141	0xbd82ec7a	-0.063927606
142	0xbdc009df	-0.09376883
143	0xbe0ff7bb	-0.14059345
144	0xbdeaaf88	-0.11459261
145	0x3d9b156d	0.07572446
146	0x3e121f24	0.14269692
147	0x3b6f1c53	0.0036485388
148	0x3dcf2d8e	0.10116111
149	0xbe2e38af	-0.1701381
150	0xbd93f205	-0.07223896
151	0xbe07cfdc	-0.13262886
152	0x3c1279d4	0.008940179
153	0x3d5ed5f2	0.054403253
154	0xbb26edf1	-0.0025471414
155	0xbe252fba	-0.16131487
156	0xbdfc65a4	-0.12324074
157	0x3e16836f	0.14698575
158	0x3e130045	0.14355572
159	0xbbe9f77e	-0.007140099
160	0x3d75b647	0.059988286
161	0xbdb3413e	-0.08752678
162	0xbd43d106	-0.047806762
163	0xbd7ac900	-0.061226845
164	0x3d24dbd8	0.04024872
165	0x3d7a3079	0.061081383
166	0xbd222e0c	-0.039594695
167	0x3dae8389	0.08521182
168	0x3dc5d6c5	0.09660105
169	0xbdfad0dc	-0.12246868
170	0x3e1ae80e	0.15127584
171	0xbc327553	-0.01089223
172	0xbcddcdcc	-0.02707567
173	0xbd0ce542	-0.034398325
174	0xbd1113d4	-0.0354193
175	0x3cd86ee1	0.026420059
176	0x3d266f15	0.04063328
177	0x3c14aedb	0.009074892
178	0xbd89e0b7	-0.06732314
179	0x3e216a3e	0.15763184
180	0x3e0276a2	0.12740567
181	0xb8bed23f	-9.0990674e-05
182	0xbe2234cc	-0.15840453
183	0x3e1417ad	0.14462157
184	0xbd6e72e1	-0.058215026
185	0xbe23244f	-0.1593182
186	0x3d334724	0.043769017
187	0xbc84e49a	-0.016222287
188	0xbdb4600b	-0.08807381
189	0xbe0c1bfe	-0.13682553
190	0x3e088501	0.13331987
191	0x3cadacfc	0.02120065
192	0x3e3568fa	0.17715827
193	0xbcace653	-0.02110592
194	0x3cde7e63	0.027159875
195	0x3e26528b	0.16242425
196	0xbc4f9748	-0.012670346
197	0x3e1e0013	0.15429716
198	0xbe2a4206	-0.16626748
199	0xbb3a881d	-0.0028462477
200	0x3e150fb6	0.14556774
201	0xbe2d7dfb	-0.16942589
202	0x3ca1c10a	0.019745369
203	0x3d732de9	0.059369955
204	0xbd2526da	-0.040320255
205	0xbcdbc036	-0.026825052
206	0xbdc10eba	-0.09426637
207	0xbdba2aa5	-0.09090165
208	0x3db2c2f4	0.087285906
209	0x3d4581f0	0.04821962
210	0x3cc9b06f	0.024620263
211	0xbe0cea85	-0.13761337
212	0xbcd2976f	-0.025706975
213	0x3d9bfe5e	0.07616876
214	0x3e4a252e	0.19740745
215	0x3d282e3e	0.041059725
216	0xbc8e1f3e	-0.017348882
217	0xbe187eee	-0.1489217
218	0xba8b8435	-0.0010644259
219	0x3d810f05	0.06301693
220	0xbe1e352d	-0.15449972
221	0xbcb3ab9f	-0.021932421
222	0x3e16e725	0.14736612
223	0xbd7d4911	-0.06183726
224	0x3e190499	0.1494316
225	0x3ccb5d13	0.024824655
226	0xbdd7e7cf	-0.10542261
227	0xbc75dfb2	-0.015006946
228	0x3d9a3fe5	0.07531718
229	0x3c90b68c	0.01766517
230	0xbb82107a	-0.0039692493
231	0xbd909d57	-0.0706126
232	0xbd696d79	-0.056989167
233	0xbcd31b07	-0.025769724
234	0xbd16125e	-0.03663861
235	0x3d8da018	0.06915301
236	0x3df360f0	0.11883724
237	0xbd96edd6	-0.07369582
238	0x3e183de5	0.14867361
239	0x3c58c692	0.013230937
240	0xbc40eeb0	-0.011775658
241	0x3c9907eb	0.018680533
242	0xbde29c41	-0.11064959
243	0xbd3c5b37	-0.045985427
244	0x3d7d063d	0.061773527
245	0x3dac23b6	0.08405249
246	0x3c08f1e1	0.00835845
247	0xbdece2ec	-0.115667194
248	0x3e224732	0.15847471
249	0xbda4784c	-0.08030757
250	0x3c8c9019	0.017158555
251	0xbcc23d3e	-0.023710843
252	0xbe1ffe8c	-0.15624446
253	0xbdfa2577	-0.12214177
254	0xbe120aaa	-0.1426188
255	0x3e498a42	0.19681647

lstm.bias_hh_l0 f4 [256]
0	0x3e0098b0	0.12558246
1	0x3e0aede5	0.13567312
2	0x3cf0a20c	0.029374145
3	0x3e502884	0.20327955
4	0xbdadc9cd	-0.08485756
5	0x3e0f4ae5	0.13993414
6	0xbb11d59e	-0.002225257
7	0x3d0e9308	0.03480819
8	0xbd0dbebc	-0.034605727
9	0xbe0be87f	-0.13662909
10	0xbb112ab3	-0.0022150695
11	0x3e41fd7f	0.18944357
12	0xbdc661c6	-0.096866176
13	0x3de56039	0.11199994
14	0xbd590ada	-0.052988864
15	0xbd85be00	-0.0653038
16	0x3e3ed413	0.18635587
17	0x3e00e190	0.12586045
18	0x3e39e92b	0.18155353
19	0x3ca6f816	0.020381968
20	0xbc88a2dc	-0.01667922
21	0xbce9eefb	-0.028556338
22	0xba1e044c	-0.0006027862
23	0x3dae4520	0.08509278
24	0x3bc16682	0.0059021125
25	0x3d7f7202	0.062364586
26	0x3e322d34	0.17400056
27	0x3d494338	0.04913637
28	0xbc9e9bba	-0.019361366
29	0x3d820b15	0.0634977
30	0x3e0d0562	0.13771585
31	0x3c16c172	0.009201394
32	0x3b43c917	0.0029874498
33	0x3dc94180	0.09826946
34	0x3d5bf54b	0.053700726
35	0x3d087b2e	0.0333206
36	0x3d2296a0	0.03969443
37	0x3e49c200	0.19702911
38	0xbbbfd0ed	-0.0058537633
39	0xbc851e6b	-0.016249856
40	0xbd14dee3	-0.036345374
41	0xbc627a2d	-0.013823074
42	0x3e0d3ade	0.13791987
43	0x3d2abffe	0.041687004
44	0x3d596ebb	0.053084116
45	0xbe22b06d	-0.15887614
46	0xbd041b77	-0.032252755
47	0xbc497389	-0.012295612
48	0xbc4c5837	-0.012472204
49	0x3d547cd5	0.05187686
50	0xbde24928	-0.1104911
51	0xbe25b317	-0.16181599
52	0x3e22f27d	0.15912814
53	0xbe17bb54	-0.14817554
54	0x3e1f0ad2	0.15531471
55	0xbe26b862	-0.16281274
56	0xbd129fd2	-0.035796948
57	0xbc767089	-0.015041479
58	0xbc39ffe0	-0.011352509
59	0x3da3e4b8	0.08002609
60	0xbe41bd85	-0.18919952
61	0x3d66b36d	0.056323458
62	0xbdefba6c	-0.11705479
63	0x3e0cebb9	0.13761796
64	0xbcf58ff8	-0.029975876
65	0x3d8c3c18	0.068473995
66	0x3d92c258	0.071659744
67	0xbdd0f486	-0.10202889
68	0x3c2640c0	0.010147274
69	0xbd9417a8	-0.072310746
70	0xbd95c4ea	-0.07312949
71	0x3d402834	0.04691334
72	0xbdae29a2	-0.085040346
73	0x3c3c2900	0.011484385
74	0xbc24e080	-0.010063291
75	0xbd592330	-0.053012073
76	0x3d2f9e2c	0.042875454
77	0xbdddb374	-0.108252436
78	0xbd570340	-0.052493334
79	0x3d95a61c	0.073070735
80	0x3d92d206	0.07168965
81	0xbcc4e8b8	-0.02403675
82	0x3d652c8c	0.055950686
83	0xbd773358	-0.0603517
84	0xbdb00cd0	-0.08596194
85	0x3d158b38	0.036509722
86	0xbd6b226c	-0.057405874
87	0x3ddf5d4a	0.10906465
88	0x3d73edd0	0.059552968
89	0x3dcec5b2	0.10096301
90	0x3c9a50f0	0.018837422
91	0x3d94f872	0.0727395
92	0x3dab5aae	0.08366905
93	0x3db3b87a	0.087754205
94	0x3d29b614	0.04143341
95	0x3b0f58c0	0.0021872967
96	0xbdfde2d8	-0.12396783
97	0xbdc8c1fc	-0.098026246
98	0x3df73ffa	0.120727494
99	0xbd81f14e	-0.06344853
100	0xbdac04ee	-0.08399378
101	0x3c806030	0.015670866
102	0x3d9ab4b0	0.07553995
103	0xbde3b812	-0.11119093
104	0x3da02418	0.07819384
105	0xbda7c7b0	-0.08192384
106	0x3d969d10	0.07354176
107	0x3cead1c8	0.028664485
108	0xbd22b53c	-0.03972362
109	0xbc88dd48	-0.016707078
110	0x3d3a3e0c	0.04546933
111	0x3da720e4	0.0816057
112	0xbdf66894	-0.120316654
113	0x3dca7de6	0.098872945
114	0xbce7c528	-0.028292254
115	0xbc957338	-0.018243417
116	0xbd2a587c	-0.04158829
117	0x3d1ce944	0.038308397
118	0x3b459d40	0.0030153543
119	0xbd946cd8	-0.07247323
120	0xbca61838	-0.02027522
121	0xbda6356e	-0.0811566
122	0xbd8df99c	-0.06932375
123	0x3d2673e0	0.04063785
124	0xbdbc51d2	-0.091952935
125	0xbc11a4f0	-0.008889422
126	0xbce6f188	-0.028191343
127	0xbdff28de	-0.12458967
128	0xbe25998b	-0.16171853
129	0x3da6d3ac	0.08145842
130	0xbc846272	-0.016160224
131	0x3e339520	0.17537355
132	0x3d6a1614	0.05714996
133	0xbd3e2eb7	-0.04643127
134	0xbe065b10	-0.13120675
135	0x3d8286d5	0.063733734
136	0x3dc4d1eb	0.09610351
137	0x3dce898c	0.10084829
138	0x3ca4a255	0.020096937
139	0xbdf56fb9	-0.119842
140	0xbbd765dc	-0.006573422
141	0xbcd3d5fb	-0.02585887
142	0xbd81c004	-0.06335452
143	0x3bd0e2ac	0.0063746776
144	0xbdd5a555	-0.10431925
145	0x3e196040	0.14978123
146	0x3e14811e	0.1450238
147	0xbe0b7e5e	-0.13622424
148	0x3e2dde1f	0.16979264
149	0xbe1c62fd	-0.15272136
150	0xbcc180a9	-0.02362092
151	0xbe0aa887	-0.1354085
152	0xbdbfa29d	-0.09357188
153	0x3e3358ef	0.17514394
154	0x3c711f84	0.014716987
155	0xbdf28867	-0.11842423
156	0xbcc92ebf	-0.024558423
157	0x3c034f8a	0.008014569
158	0x3ded6052	0.11590637
159	0x3db4dbac	0.088309616
160	0x3dfacd00	0.12246132
161	0x3d3e5a48	0.046472818
162	0x3d235500	0.039875984
163	0xbd0366ce	-0.032080464
164	0x3e329a59	0.17441691
165	0xbcebc7b7	-0.028781755
166	0x3d0b64da	0.034031726
167	0x3e2e0268	0.16993105
168	0x3df74d7d	0.120753266
169	0xbd5552f1	-0.052081052
170	0x3e2bee0d	0.16790028
171	0x3c65aacf	0.014017775
172	0x3d94d335	0.07266847
173	0x3cad044f	0.021120219
174	0x3b71fc12	0.0036923927
175	0xbd40c652	-0.047064133
176	0xbdf3f314	-0.11911598
177	0xbe293f77	-0.16528116
178	0xbdc0da36	-0.094166204
179	0x3d8cf41f	0.068825
180	0x3d972b1f	0.073812716
181	0x3d347c01	0.04406357
182	0x3bc33301	0.005957008
183	0xbc790131	-0.015198038
184	0x3e1ccecd	0.15313263
185	0x3d62ff0e	0.05541902
186	0x3a8680dd	0.0010261793
187	0x3c08c004	0.008346561
188	0xbcdda1da	-0.027054716
189	0xbccdd6a1	-0.025126757
190	0x3b6ea300	0.0036413074
191	0xbd735573	-0.059407663
192	0x3dbb3ce6	0.09142475
193	0x3e52e568	0.20595324
194	0x3e5b0623	0.2138906
195	0x3e1c2149	0.15247072
196	0xbd9cf055	-0.07663027
197	0x3e4153b8	0.18879592
198	0xbd1e79f5	-0.038690526
199	0x3e2edba0	0.17075968
200	0x3e32a9d0	0.17447591
201	0xbca11c06	-0.019666683
202	0xbd101871	-0.03517956
203	0x3e6a8210	0.22901177
204	0x3d62ee8c	0.055403277
205	0xbb0c2ca8	-0.0021388922
206	0xbce941ae	-0.028473701
207	0xbc958792	-0.018253122
208	0x3d33176e	0.043723516
209	0xbcf8aa65	-0.030354688
210	0x3e281760	0.16415167
211	0xbc979877	-0.018505318
212	0x3e21bb9c	0.15794224
213	0x3d936f40	0.07198954
214	0xbd23347b	-0.03984497
215	0xbdee3cfc	-0.116327256
216	0x3dbbc2f8	0.09168047
217	0xbe278a60	-0.1636138
218	0x3e2d35eb	0.169151
219	0x3c52bdf9	0.012862676
220	0xbc0a276b	-0.00843225
221	0xbb7c46a7	-0.003849426
222	0xbcbd8c38	-0.02313815
223	0xbe23ab4d	-0.15983315
224	0x3cfd0434	0.030885793
225	0x3d7322d2	0.05935938
226	0x3d7f7480	0.062366962
227	0xbd78f907	-0.060784366
228	0x3ba86b1e	0.0051397225
229	0x3d2384d5	0.0399216
230	0x3c408207	0.011749751
231	0xbe14862b	-0.14504306
232	0xbe1e9526	-0.15486583
233	0x3e19dd90	0.15025926
234	0x3d43a41a	0.04776392
235	0x3b480c14	0.0030524777
236	0x3dff3ea8	0.124631226
237	0xbd3e4f32	-0.046462245
238	0xbc3e7aad	-0.011625928
239	0x3e5690cd	0.20953675
240	0x3db95f3a	0.09051366
241	0x3deb363e	0.11484955
242	0x3da269a9	0.07930309
243	0xbcacde6b	-0.02110215
244	0xbd166231	-0.036714736
245	0x3e0d963e	0.13826844
246	0x3dbbd031	0.09170569
247	0xbe314a21	-0.17313434
248	0x3d85c267	0.0653122
249	0xbdfcfba2	-0.12352683
250	0x3cbebba9	0.023282843
251	0x3e1ce91b	0.15323298
252	0xbdbfca92	-0.09364809
253	0xbdad3dfc	-0.08459088
254	0xbd33d5dc	-0.043905124
255	0x3cd08111	0.025452169

fc.weight f4 [1, 64]
0	0xbe54d91a	-0.20785943
1	0x3d198100	0.03747654
2	0xbe1762d6	-0.14783797
3	0x3e5bd7a2	0.21468976
4	0xbd78c8c4	-0.06073834
5	0xbe5d49f6	-0.21610245
6	0x3cc0077d	0.02344107
7	0x3e5e90d9	0.21734942
8	0xbc6e57ea	-0.0145473275
9	0x3d3d76f5	0.046256024
10	0xbe09ca99	-0.13456191
11	0x3cc96bb5	0.024587492
12	0xbd81c57b	-0.063364945
13	0xbe68006c	-0.22656411
14	0x3b60601c	0.0034236973
15	0xbc002a6f	-0.007822617
16	0xbe1911ca	-0.14948192
17	0x3e396084	0.18103224
18	0x3e1988ca	0.14993587
19	0x3ae60a8d	0.0017550752
20	0x3e051f64	0.13000256
21	0xbe02a3dc	-0.1275782
22	0xbe640a78	-0.22269619
23	0xbd68d430	-0.056842983
24	0xbe4ecae1	-0.2019458
25	0xbce8ad84	-0.028403051
26	0x3e38c194	0.18042594
27	0xbe53c1f2	-0.20679453
28	0x3b008d58	0.0019615497
29	0x3e280297	0.16407238
30	0x3e6385dd	0.22219034
31	0x3d648866	0.055794142
32	0x3e52fc51	0.20604064
33	0xbe071414	-0.13191253
34	0x3d1f26ff	0.03885555
35	0xbc91db84	-0.017804869
36	0x3e143c97	0.14476238
37	0x3e71708e	0.23578092
38	0xbe449946	-0.19199094
39	0xbd1cd7db	-0.038291793
40	0x3c31ebd9	0.010859453
41	0xbdef7147	-0.11691528
42	0x3df47236	0.119358465
43	0x3e572db0	0.21013522
44	0x3e53e98e	0.20694563
45	0xbd1e055a	-0.038579322
46	0xbe58cff5	-0.2117308
47	0x3ded94f1	0.11600674
48	0xbe500740	-0.20315266
49	0xbe1c2532	-0.15248564
50	0xbd8802a0	-0.06641126
51	0x3bb45bc0	0.0055041015
52	0x3e5e3e96	0.21703562
53	0xbe865caa	-0.26242572
54	0xbe3e2adf	-0.18571042
55	0x3ce5921a	0.028023768
56	0x3d8b3139	0.06796498
57	0xbbd7fb59	-0.0065912423
58	0x3d4aff85	0.04956009
59	0xbe170fa2	-0.14752057
60	0x3cfa9ca9	0.03059228
61	0x3b773bca	0.0037724846
62	0x3d0e05ca	0.03467349
63	0xbe6ff63d	-0.23433776
