CpG/saved_model.pth (torch, 200791 bytes, 5 tensors)

lstm.weight_ih_l0 f4 [256, 128]
000000 8d 2d 21 bc 26 b4 ad 3d 61 9d 2a 3e a4 df fb bc
       -0.00983752 0.08481626 0.16661598 -0.030746289
000010 f2 85 0c bd 92 0b ee 3d 0b fc ae 3c e4 c4 35 3e
       -0.034307428 0.116233006 0.021360418 0.17750889
000020 28 61 55 3e bf b1 6b 3c c2 d7 9e bc 80 25 93 3d
       0.20837843 0.01438564 -0.01938999 0.07184887
000030 60 19 46 3e f1 f6 ad 3d 9e b1 c7 3d ed 1e e7 3c
       0.19345617 0.08494366 0.09750675 0.028212989
000040 a4 48 bd 3c a4 8f 40 3d 27 79 2e 3e 30 3f 65 bb
       0.023105927 0.047011986 0.17038403 -0.003498029
000050 46 3b 50 3e d9 de 94 3d 5e 8f 84 3d b6 05 2c 3e
       0.20335111 0.07269067 0.064726576 0.16799054
000060 f1 06 53 3e b2 7a 25 3d 5c 87 87 3d e3 9c 15 3e
       0.20608117 0.040400214 0.066176146 0.14610629
000070 a1 22 98 3d 78 64 be 3c 51 82 e6 bc ae 21 b2 3c
       0.0742848 0.023241267 -0.028138312 0.021744575
000080 8b 2f e9 3d c5 49 2f 3e 82 33 58 3e a7 f8 00 3d
       0.11386021 0.17117985 0.21113399 0.031487133
000090 cf 09 86 3d 2f aa 16 3d 8b ba 14 3e ba 1a a2 3b
       0.065448396 0.036783393 0.14524285 0.0049470337
0000a0 b3 ef 4e 3e d0 e0 c2 bc fa fa 20 3e 3b 4b 82 3d
       0.20208625 -0.02378884 0.1572074 0.06362005
0000b0 a5 7b 1c 3e f6 ec 2b 3e 15 5d 4c 3e 66 0f 5f 3d
       0.15281542 0.16789612 0.19957383 0.054458044
0000c0 4f ff cf 3b 3e a6 31 3e 1f f6 04 3e 19 89 e3 3d
       0.006347574 0.17348573 0.12984513 0.11110134
0000d0 cc f7 b1 3c 9d 28 48 3e 0f 3b 0d 3e 72 7c c2 3d
       0.021724604 0.19546743 0.1379206 0.09496392
0000e0 a3 ef c3 3c 39 4d fc 3d 0b 09 d7 bb 03 ba ee 3d
       0.023917979 0.123194166 -0.0065623573 0.11656573
0000f0 7e a1 58 bc 4c e2 72 3d f2 d5 63 3d 2f 7e 63 3d
       -0.0132220965 0.059297845 0.055623956 0.05554026
000100 e0 14 cd bc 75 b1 f1 bc fb 4d 63 3d 0a f9 df 3d
       -0.025034368 -0.029503563 0.05549429 0.10936172
000110 1c 09 30 3e 4c 1a 4d 3e ad 13 ed 3d 21 8e bd bc
       0.17190975 0.20029563 0.115760185 -0.023139061
000120 29 63 0b bd 66 2d 1d 3d 56 f1 aa 3c 59 2d c7 3d
       -0.034030113 0.038373373 0.020867031 0.09725446
000130 ed 7a 3f 3d 08 c1 22 3c 6d cd 4c bc 18 b5 f1 3d
       0.04674809 0.009933718 -0.012500149 0.11802119
000140 08 e1 43 3e 8e bd bc 3c 0b 4d e4 bc e7 bd 4e 3e
       0.19128811 0.023039605 -0.027868768 0.2018963
000150 aa 2c 1c 3a 02 f2 1c 3e d8 45 e5 3d 38 1a 36 3e
       0.0005957583 0.15326694 0.11194962 0.17783439
000160 bf 4b e1 3c ae 72 0c 3e 30 ba 19 3e 2f 6e 14 3e
       0.027501939 0.13715622 0.15012431 0.14495157
000170 dd 07 95 bb 41 4e f8 3d 02 b9 16 3e 03 99 42 bc
       -0.0045480565 0.12124301 0.14719012 -0.011877301
000180 a2 31 10 3e d3 44 f2 3d 08 8f 7c 3d 16 e6 a2 3d
       0.14081433 0.118295334 0.061659843 0.07954042
000190 4b 31 f6 3d 7a 82 ab bc a8 55 5a 3d 3d 6b a9 b9
       0.12021121 -0.02093624 0.053304344 -0.0003231409
0001a0 b0 3a 49 3d 03 ed b3 3c 8b 2d 0a 3d ef 34 41 3e
       0.049128234 0.021963602 0.03373484 0.18867849
0001b0 53 da 38 3e 12 31 32 3e 9d 4d 36 3e 90 4e ef 3b
       0.18052034 0.17401531 0.17803045 0.0073030666
0001c0 ed 5c bf bc 7b 01 ca 3d e0 b6 01 bc 1a 69 58 3e
       -0.02335974 0.098635636 -0.007917136 0.21133843
0001d0 36 81 37 3e 4f 36 ec 3d 54 e7 fe 3d bb 41 e3 3c
       0.17920384 0.11533796 0.12446466 0.027741304
0001e0 28 80 8f 3d 34 fc a8 3d b5 f9 cb 3d 14 6e b7 3d
       0.07006866 0.08251229 0.09959737 0.089565426
0001f0 b2 b8 36 3e 50 aa af ba a5 fe f2 3d 38 64 8b 3d
       0.17843893 -0.0013402198 0.11864976 0.068062246
000200 86 32 27 be 9a 4a b3 3a 6b fa 08 3d 6c 19 7f 3d
       -0.16327867 0.0013678849 0.033441942 0.062280104
000210 51 00 0d bd f1 cf ad bd a0 48 ed bd 38 50 ec 3c
       -0.03442413 -0.08486927 -0.11586118 0.028846845
000220 82 0c 1a be 33 16 0c be c3 e4 4b 3d 47 67 87 bd
       -0.15043834 -0.13680343 0.04977871 -0.066114955
000230 4a c5 62 3b 7c d1 2f bd 10 8c ce bd ae a7 37 bd
       0.0034602457 -0.04292439 -0.100853086 -0.044837646
000240 17 02 21 3c 32 d3 8a bd 55 f9 a5 bd bc ef c0 bd
       0.009827158 -0.067785636 -0.08104197 -0.09420726
000250 10 6d 3c be 19 81 e5 bc dc ce c9 bd fd bd 25 be
       -0.18400979 -0.02801566 -0.098539084 -0.16185756
000260 e1 8f 2d 3d e3 55 03 3a 94 91 6b bd b9 eb 00 be
       0.04237354 0.00050100515 -0.05751188 -0.12589921
000270 95 25 a1 bd 33 16 9b 3c 2f f6 c1 bd ad 79 3a 3a
       -0.07868496 0.018931484 -0.09470784 0.0007113468
000280 f6 f1 80 bd 18 14 48 3d 3b 03 37 be 1d 94 c0 bc
       -0.062961504 0.048847288 -0.17872326 -0.023508126
000290 cb cf 3a be 07 0a 63 3d 80 a2 f9 bb c6 d1 11 3d
       -0.18243329 0.055429485 -0.0076182485 0.035600446
0002a0 79 1b fa bc a0 e1 83 3d 5e 1e 7f 3d 23 01 92 bd
       -0.030530678 0.06439519 0.06228482 -0.07129123
0002b0 8f bd 27 3d 4f 63 ee bc 23 d0 21 be 8a bf 9b 39
       0.04095226 -0.029100088 -0.15802054 0.00029706612
0002c0 b7 1a fc bc 14 0b 23 3c 0a f7 01 bd b0 43 51 bd
       -0.030774457 0.009951372 -0.031729735 -0.051089942
0002d0 34 96 09 be f2 0e 85 bc 02 2a bb bd 93 dc 8e bc
       -0.13436204 -0.016242478 -0.09138872 -0.017439162
0002e0 8e 0a 7a 3d c7 67 5c 3d 0d 92 19 bd b9 8a 91 bd
       0.061045222 0.053809907 -0.0374928 -0.07106537
0002f0 f8 7f a3 bd 7b da 1a 3d d7 90 c3 ba 79 cd 84 bd
       -0.079833925 0.037806015 -0.0014920485 -0.06484503
000300 56 95 64 3d 06 6d 49 bd b8 9b 5b 3d 23 d8 14 be
       0.05580648 -0.04917624 0.0536153 -0.14535575
000310 09 57 9d bd 40 ef 74 3d 8d d1 74 3d 1f e4 eb bc
       -0.07682616 0.05979848 0.059770156 -0.0287953
000320 51 15 c1 bd b0 a5 e8 bd 1c 1a 3e bd 41 bc 10 bd
       -0.09427894 -0.113597274 -0.04641162 -0.035335783
000330 28 f0 23 be c6 cd 7f ba ed c4 9b 3c fa ac 4f 3d
       -0.16009581 -0.00097581407 0.0190148 0.050702073
000340 2e e9 7b bd ae 3c 34 be 49 74 ae bd 2e 65 66 bd
       -0.061501674 -0.17601272 -0.085182734 -0.056248836
000350 4c dc bf bd ef 96 2d 3d 7d fa e2 bd 27 95 89 bd
       -0.0936819 0.04238027 -0.11082933 -0.06717902
000360 9b df 1d be fe 46 59 bd 10 89 dd bd f2 11 0d be
       -0.1541733 -0.05304622 -0.10817158 -0.13776377
000370 85 d6 0b 3d 06 88 02 bc 47 8d 23 be 65 5d 34 be
       0.03414013 -0.007967001 -0.15971862 -0.17613752
000380 35 d5 93 3c 04 d1 02 bd ee 85 40 bd 9f 75 10 bb
       0.018046001 -0.031937614 -0.047002725 -0.0022042764
000390 99 82 49 bd fb c1 88 3c a3 03 a3 bc 0f 81 a5 3c
       -0.049196813 0.01669406 -0.019899195 0.020203141
0003a0 0e 49 1b be 4b d1 2d be 4c 2c dd bd 56 d0 0b 3d
       -0.15164587 -0.1697437 -0.107994646 0.03413423
0003b0 e4 15 ea 3c e7 ae 2e 3e 0d fb dd 3d e9 5d 78 3d
       0.028574891 0.17058907 0.108389 0.060636435
0003c0 27 0e be 3d 93 4d 08 3e f7 8f 96 3d 09 2d 08 3e
       0.09280043 0.13310842 0.07351678 0.1329843
0003d0 35 c6 ce 3d 2d fa 51 bd ff bb ed 3d 3c 36 1d 3e
       0.10096399 -0.051263977 0.11608123 0.1535272
0003e0 68 9c b1 3c 24 c6 d7 3d ca 31 75 3b 20 da be 3d
       0.021681026 0.10535839 0.003741371 0.09318948
0003f0 dc 62 9f bd 97 fe a6 3d c7 a8 f5 3c e8 ad f6 3d
       -0.07782528 0.08154028 0.029987706 0.12044889

lstm.weight_hh_l0 f4 [256, 64]
000000 a2 4b dc bd e0 f1 e1 3c 9c fe 50 3d 00 8d 39 bb
       -0.10756613 0.027581155 0.051024064 -0.0028312802
000010 28 fe 01 3d b2 ac 90 bd 10 8a ad 3c c8 57 d5 3d
       0.031736523 -0.07064189 0.021183997 0.104171336
000020 54 c2 c7 3d 6c 14 63 bd 6a ef 84 bd e6 e3 bb bd
       0.09753862 -0.055439398 -0.06490977 -0.091743276
000030 78 0b 09 bd 08 5d eb 3c 40 5b ae bd a8 87 42 3d
       -0.033458203 0.028730884 -0.08513498 0.047492653
000040 9a 01 d8 bd a0 41 8a 3c 18 96 7a 3d 6a 47 88 3d
       -0.105471805 0.016876996 0.061178297 0.06654246
000050 7c 32 96 bd d8 09 ed 3c 00 0e c0 39 02 c2 c7 bd
       -0.07333848 0.028935358 0.00036631525 -0.09753801
000060 56 00 dc bd c0 88 ba bc 80 24 2d 3c 94 16 4f bd
       -0.107422516 -0.022770286 0.010567784 -0.05055864
000070 ca 71 9d bd f4 86 0c bd 68 9e ce bc da e8 a8 bd
       -0.07687719 -0.03430839 -0.025222018 -0.08247538
000080 c4 c1 d9 3d a0 49 b9 bd 3a e9 c6 3d b8 31 69 3d
       0.10632661 -0.09047246 0.09712453 0.05693218
000090 2c 7c 7f 3d 48 ac f2 bd d0 81 43 bc 10 5d 89 3d
       0.06237428 -0.11849266 -0.011932805 0.067072034
0000a0 e6 f2 fb bd 0c 10 f1 3d 66 ea c6 bd da c2 fd 3d
       -0.123021886 0.11770639 -0.09712677 0.123906806
0000b0 b0 4b 98 3c ca 57 ec 3d 90 f2 ef bd f4 d2 70 bd
       0.018590778 0.11540182 -0.11716187 -0.05879493
0000c0 e2 e8 80 bd 00 fb cf bc ee 5c e3 3d a0 c6 54 3c
       -0.06294419 -0.02538824 0.11101709 0.012986809
0000d0 52 fd 84 bd 70 1b d2 bd ac bd 6e 3d d4 f9 3c bd
       -0.064936295 -0.102591395 0.058286354 -0.046136692
0000e0 3c b4 e0 3d 80 11 32 3b f4 b1 68 3d 2c 11 bb 3d
       0.10971877 0.0027171075 0.056810334 0.09134135
0000f0 80 4b 56 bb 8e 3c 89 3d fc cf 05 3d 98 aa b5 3d
       -0.003269881 0.06701003 0.032669052 0.08870429
000100 1e d1 d5 bd 08 e9 b3 3d 78 36 47 3d aa 6f a8 bd
       -0.104402766 0.087846816 0.04863593 -0.08224423
000110 c0 63 7b bb 70 81 46 3c 10 2a 3e 3c f4 c8 f3 3d
       -0.0038359016 0.012115821 0.011606708 0.11903563
000120 48 e6 4e bd a4 ba 89 bd 40 2b fe bd 2a e5 ab bd
       -0.050512582 -0.06725052 -0.12410593 -0.08393319
000130 1c 4e ed 3d 92 c5 ea 3d 0c 93 64 bd f0 fb 34 3d
       0.11587164 0.11463465 -0.055804297 0.04418558
000140 98 6b 09 bd 60 54 71 3c 04 38 e1 3d 64 cc 45 3d
       -0.033549875 0.014729589 0.10997012 0.048290625
000150 86 49 a1 bd 54 df a4 bd de 74 aa 3d 30 c3 eb 3c
       -0.078753516 -0.08050409 0.08323072 0.028779596
000160 e0 8f 8c 3b 98 d4 8d 3c c6 39 eb 3d c0 8b 31 bc
       0.004289612 0.017313287 0.11485629 -0.010836542
000170 04 0a 36 bd 1c a7 ab 3d 44 96 42 3d c4 4c 79 bd
       -0.044443145 0.08381483 0.047506586 -0.060864225
000180 d0 b3 21 bc c0 75 5c 3c 58 38 94 bd 66 cc db bd
       -0.009869531 0.013455808 -0.07237309 -0.10732345
000190 e4 21 2c bd 30 21 7f bc 58 8d c3 bc 98 f4 82 bc
       -0.042024508 -0.015571877 -0.023871109 -0.015985772
0001a0 4c 8e fe bd 74 05 47 bd 7a 55 ec bd 50 0a ce bc
       -0.12429485 -0.048589185 -0.11539741 -0.025151402
0001b0 a0 2c 8e 3c ee 78 8e bd 30 ce 61 3c 7e f8 97 3d
       0.017355263 -0.06956659 0.013782069 0.07420443
0001c0 f8 1f 21 3d ca 9a f9 bd dc 52 2d bd 48 b8 ae 3d
       0.03933713 -0.12187727 -0.04231535 0.085312426
0001d0 b4 81 29 3d 60 ac 43 bd 94 b5 66 3d 34 34 8a 3d
       0.04138346 -0.04777181 0.05632551 0.06748238
0001e0 e8 ff 93 bc 12 11 c2 3d b4 51 16 bd 92 3c 9b bd
       -0.018066362 0.09475912 -0.036699012 -0.07579912
0001f0 1a aa f5 3d f0 e6 b5 3c 20 49 75 bc 18 0b e3 3d
       0.11995335 0.022204846 -0.014971048 0.110861
000200 c4 de ac bd c0 e0 e0 bc 6c 0c fe bd 28 5b c2 bd
       -0.08440927 -0.02745092 -0.12404713 -0.09490043
000210 96 2a bc bd 2a 27 89 bd e0 0a e1 bb bc 22 78 3d
       -0.0918781 -0.06696923 -0.0068677515 0.06058
000220 e0 b6 be bd 74 e7 42 bd f0 4b bf 3c 98 32 9e bc
       -0.093122244 -0.047584012 0.02335164 -0.019311234
000230 b4 e6 85 bd dc d2 52 3d ca 39 dd bd 6c b5 85 3d
       -0.06538144 0.051470622 -0.10802038 0.06528744
000240 82 5b a1 3d e0 45 38 bc 00 55 4f 3a e0 0c 8c 3d
       0.07878782 -0.011247128 0.00079090893 0.06838393
000250 10 7f 4f 3d 9c 06 c8 bd 54 a3 be bd a0 82 cb 3c
       0.050658286 -0.09766886 -0.09308496 0.02484256
000260 72 08 dc bd 3a e2 fa bd 58 6a 18 3d 18 d7 95 3d
       -0.10743798 -0.122501805 0.037210792 0.073164165
000270 ec c3 f5 bd d8 1d fa 3d 40 f9 8b bb c8 6d c8 3d
       -0.1200026 0.122127235 -0.0042716563 0.09786564
000280 60 fe df 3b e2 80 a0 3d 2c 70 7d bd 34 66 67 3d
       0.006835744 0.078370824 -0.061874554 0.056493953
000290 70 fd b6 bd be 8c 97 bd 10 50 77 3c a4 14 87 bd
       -0.08935058 -0.07399891 0.015094772 -0.06595734
0002a0 32 71 d6 3d c0 4d 37 3d 20 00 b7 3b 94 47 44 bd
       0.10470809 0.044751883 0.0055847317 -0.047919825
0002b0 ee e0 d7 bd 2c 1e 94 bd d0 ed 95 bd 38 76 51 3d
       -0.10540949 -0.07232317 -0.0732075 0.051138133
0002c0 34 24 24 bd a6 41 db bd 5e ad eb bd f0 50 eb bd
       -0.04007359 -0.10705881 -0.115076765 -0.11490047
0002d0 d6 41 92 3d 50 53 20 bd 0c 08 de 3d 8a 4e d4 bd
       0.071414635 -0.039141953 0.108413786 -0.10366543
0002e0 ec 8e d0 3d 38 08 15 bd d0 ba 6b bc 80 7c 19 3b
       0.1018351 -0.03638479 -0.014387801 0.0023420155
0002f0 58 ba b9 3d e0 91 20 3c 2a e6 a1 bd 60 1e 92 bd
       0.090687454 0.009800404 -0.079052284 -0.071347
000300 ce d7 99 bd 20 66 67 bd 16 fe 8a bd c4 e0 93 bd
       -0.075118646 -0.05649388 -0.06786744 -0.07220605
000310 26 96 da bd e8 5c fd bd ce 0b 8d bd 84 57 d7 bd
       -0.1067317 -0.12371236 -0.06887017 -0.10514739
000320 f2 c1 b6 bd b6 2e e5 3d 78 c9 9f bd d0 74 40 bd
       -0.08923711 0.1119055 -0.07802099 -0.0469864
000330 b6 5c e0 3d b4 90 57 bd e2 de 8c bd 20 26 e5 3d
       0.10955183 -0.052628234 -0.06878449 0.111889124
000340 c4 a7 a8 3d 48 93 49 bd fc db 26 bd 58 3a e0 3c
       0.08235124 -0.049212724 -0.040737137 0.02737157
000350 ee 01 bf 3d 34 c4 b3 bd e4 96 38 3d 70 0d 51 3d
       0.0932654 -0.08777657 0.045065776 0.051038206
000360 a0 3f 6b bc 60 e8 d7 3b 60 18 53 bd a4 ac e9 3d
       -0.014358431 0.0065889806 -0.051536918 0.11409882
000370 f4 cd 4c bd 28 76 ff 3c 88 95 d7 3d 52 87 cf bd
       -0.0500011 0.031184271 0.10526568 -0.10133232
000380 70 ad b7 bd f0 50 93 bc 3c cf b7 3d 42 83 94 3d
       -0.089686275 -0.01798293 0.08975074 0.07251598
000390 16 1f ea 3d 0c 02 ad bd 64 4d e4 3d 00 a1 43 3c
       0.114317104 -0.08447656 0.111475736 0.011940241
0003a0 7a fb 84 3d d0 89 77 3c ec 07 44 3d 8c 2e 26 bd
       0.06493278 0.015108541 0.047859117 -0.040571734
0003b0 c8 3d c3 3d e0 8d ac 3d a6 ef eb 3d 28 30 01 bd
       0.09533268 0.08425498 0.11520319 -0.031540066
0003c0 d0 ce 79 3d 40 b2 22 bc 16 75 f5 3d f2 7a d3 3d
       0.060988247 -0.009930193 0.11985223 0.10326184
0003d0 7c f7 b6 3d 20 ea 87 3c b0 b9 ec bd c8 87 4f bd
       0.08933923 0.016591132 -0.115588546 -0.0506666
0003e0 48 f9 3f 3d 28 79 c5 bd 84 c8 24 bd 40 4a 30 3b
       0.046868593 -0.09642249 -0.04023029 0.0026899725
0003f0 e4 11 7f 3d 14 1e 16 bd e0 9a 9c 3b 28 57 fb bc
       0.06227292 -0.03664978 0.0047792047 -0.030681208

lstm.bias_ih_l0 f4 [256]
000000 83 26 d6 3b b2 92 32 3d 04 2b c7 3d 85 77 4f 3e
       0.0065353527 0.04359693 0.097250015 0.20260437
000010 46 8a db 3d 62 48 15 3e d7 6c 2c be 72 76 9e bc
       0.10719733 0.14578393 -0.16838394 -0.019343589
000020 6e be 3f 3d f1 87 f9 bd ba c0 1d 3e 8b b1 16 3d
       0.046812467 -0.12184132 0.1540555 0.036790412
000030 9b 8d 10 be 81 3e 3e 3e bf 9d fb bc e2 ed 93 3d
       -0.14116518 0.18578531 -0.030714868 0.07223107
000040 51 84 b7 bc dd 22 ed ba c8 4c 4b 3e eb 2b 63 bc
       -0.02240196 -0.0018092055 0.19853508 -0.013865451
000050 9a 06 05 3e 6e 94 f9 3d ac 0a 99 3d 44 82 47 3d
       0.129908 0.12186514 0.074727386 0.048708215
000060 2f e4 56 be 4b 23 0c bc 0c 12 04 3e 44 74 38 3e
       -0.20985483 -0.008553336 0.1289751 0.18013102
000070 99 5c b7 bd c6 ea 5c bd c6 e6 48 ba 4a d7 86 3c
       -0.089532085 -0.053934835 -0.00076637825 0.01646008
000080 bb 22 d9 bc b5 7c d5 3d ee b7 39 be a3 1e e3 bc
       -0.026505819 0.104241766 -0.1813657 -0.02772457
000090 b7 62 c0 bc 44 0a 20 3e 5a d7 e4 bc 4d dd 3c be
       -0.02348457 0.15628916 -0.027934719 -0.18443795
0000a0 75 4c ed bc bb 2a 19 be fb 15 12 3e cf 7e 98 3d
       -0.028967122 -0.14957707 0.14266197 0.07446062
0000b0 64 81 30 3e c7 15 6e 3d 0d 2e d3 3d da ec 5e bc
       0.17236859 0.058126237 0.10311518 -0.0136062745
0000c0 62 13 41 3e 53 b5 70 ba 3f a6 5c bd 2a 96 52 3d
       0.1885505 -0.0009182293 -0.053869482 0.05141274
0000d0 13 e1 17 3e be b9 28 3c 48 1c ac bc 20 e4 d5 ba
       0.14831953 0.010298191 -0.02100958 -0.0016318597
0000e0 e1 0e a3 3d f0 07 81 bc 1b 77 0e bd fe 0a 32 bd
       0.07961822 -0.015750855 -0.034781557 -0.043467514
0000f0 06 e3 5c bd 4b e7 2e 3e 19 82 ea bd 51 f7 16 3e
       -0.053927444 0.17080419 -0.114505954 0.14742781
000100 04 a8 c6 bd 6c e0 1e 3d 80 d4 d3 3b b6 0d eb bd
       -0.09700015 0.038788244 0.006464541 -0.114772245
000110 02 c0 9f bd 20 52 c7 bc 94 f5 c1 3d 42 9e ce bd
       -0.078002945 -0.024331152 0.094706684 -0.10088779
000120 28 69 5b 3d 78 95 bd 3d 6c 2c a2 3d 68 63 81 3d
       0.05356708 0.092570245 0.07918629 0.06317788
000130 d0 97 06 3d c4 50 76 bd 20 18 81 3c aa 5f f8 3d
       0.032859623 -0.060135618 0.015758574 0.121276215
000140 5a cc eb bd 38 7e d6 3d f8 34 fa 3d 4c a2 de 3d
       -0.11513586 0.10473293 0.12217134 0.108707994
000150 e0 70 ed bd d0 53 02 3c d0 f9 12 bd ec 01 1b 3d
       -0.11593795 0.007954553 -0.03588277 0.03784363
000160 da 47 9c bd 28 3d 0f 3d 0c f3 b2 3d 66 bb 9a 3d
       -0.07630892 0.034970433 0.08737764 0.07555275
000170 48 18 96 3d 0c 54 46 3d d2 d1 d2 3d 74 19 5c 3d
       0.0732885 0.048419997 0.10293926 0.05373521
000180 20 65 88 3b ba 74 88 3d 64 f9 2a 3d 60 3f 33 bd
       0.0041624457 0.06662889 0.041741744 -0.04376161
000190 2e fd 9e bd d4 0a af bd 3e 5b 9a bd 84 ff 23 bd
       -0.07763134 -0.08546987 -0.07536934 -0.0400386
0001a0 80 18 ca bc a6 7f d3 bd 60 9c f2 3d 58 b5 63 bd
       -0.024669886 -0.103270814 0.118462324 -0.055592865
0001b0 a8 78 3a 3d ac 87 36 bd e8 50 94 3d 00 21 1d bb
       0.045525223 -0.04456298 0.07241994 -0.0023975968
0001c0 18 73 f1 bd 8c dc 87 bd 76 14 ac 3d 18 91 1b bd
       -0.117895305 -0.06633863 0.0840234 -0.03798017
0001d0 ca 20 96 bd c2 26 8f 3d da 22 fe bd 4e 1d bb 3d
       -0.07330473 0.06989814 -0.12408991 0.09136449
0001e0 00 f1 7e 3b 1a ce 88 3d 74 ac d9 3d 46 71 a0 3d
       0.0038900971 0.06679936 0.10628596 0.07834105
0001f0 f0 c6 c7 bc a4 9b bd bd d4 6b 58 3d d8 3f a8 3c
       -0.024386853 -0.09258202 0.052837208 0.020538256
000200 71 94 12 be 61 22 bb 3a fe fd c7 3c 54 7c 16 3d
       -0.14314438 0.0014277213 0.024413105 0.036739662
000210 30 9f b9 bd 41 40 1e be 78 2c 85 bd b7 a4 b7 3d
       -0.09063566 -0.15454198 -0.06502622 0.08966964
000220 89 52 ff 3d db 7e 30 3e a1 77 fe 3a 3e bb bb bd
       0.12466914 0.17235892 0.0019414314 -0.09166573
000230 5b e7 0f be e1 26 6d bd f1 1f 9f bd 89 0f 18 be
       -0.14053099 -0.057898406 -0.07769764 -0.14849676
000240 d7 5c f1 bd 58 2b 9d 3d 57 09 05 3e da a8 e7 ba
       -0.11785286 0.07674283 0.12991844 -0.0017674223
000250 14 e9 cd 3d b8 2a 41 be 5a 30 95 bd 83 ee 14 be
       0.10054222 -0.18863952 -0.07284613 -0.1454411
000260 92 1c 35 3c 98 6e 55 3d a3 26 43 3c 82 92 2c be
       0.011054175 0.052107424 0.011911067 -0.16852763
000270 66 c8 fd bd 69 9d 01 3e 26 56 12 3e 28 30 8a 3c
       -0.123917386 0.12657703 0.14290676 0.016868666
000280 ac e6 72 3d 82 c6 bd bd 9e c6 44 bd 19 fe 6c bd
       0.059302017 -0.09266378 -0.04804098 -0.057859514
000290 26 47 1d 3d d0 99 7c 3d 52 94 5a bd c4 ce b7 3d
       0.03839793 0.061670125 -0.053364106 0.08974984
0002a0 71 8e bc 3d 9c 05 d0 bd 33 c5 06 3e 52 e6 37 bc
       0.09206856 -0.1015732 0.13161163 -0.011224346
0002b0 67 a7 09 bd e5 e4 0c bd 30 c0 96 bc 19 e8 d3 3c
       -0.033606913 -0.03439798 -0.018402189 0.025867509
0002c0 06 6b 1a 3d fd e2 0f bc 24 ba 79 bd f7 06 1e 3e
       0.03769972 -0.008782146 -0.060968533 0.15432344
0002d0 55 9e 00 3e 32 ee 99 ba 58 8b 1a be ac 97 0b 3e
       0.12560399 -0.0011743961 -0.15092218 0.13632077
0002e0 99 cb 24 bd 87 96 2a be 66 52 5b 3d 21 f9 80 bc
       -0.04023323 -0.16658984 0.05354538 -0.015743794
0002f0 6a 74 b6 bd 4f b8 0c be e7 f3 17 3e ee 77 ad 3c
       -0.08908923 -0.13742183 0.14839135 0.021175351
000300 3f 1a 2e 3e 29 78 3c be 4f 63 57 3c 37 89 29 3e
       0.170022 -0.18405212 0.013146236 0.1655625
000310 58 ae e9 3d 02 98 15 3e 84 fe 2c be 84 65 51 bc
       0.114102066 0.14608768 -0.16893965 -0.012780551
000320 b4 cd 37 3e 8b 1f 2c be 57 f4 9b 3c a9 f3 1e 38
       0.17949563 -0.16808908 0.019037409 3.789706e-05
000330 9c b8 06 bd 77 ec 3e bd 17 1c a6 bd 86 9c c4 bd
       -0.0328909 -0.04661223 -0.081108265 -0.09600167
000340 11 68 a3 3d cf 85 24 3d a2 80 5a 3c 3d 1f 06 be
       0.079788335 0.040166672 0.0133363325 -0.13097854
000350 f0 f7 fa bc 43 24 8a 3d fd a9 4e 3e ee 1a 48 3e
       -0.030635804 0.067451976 0.20182033 0.19541523
000360 9b 13 8a bc 9f 1f 1d be 0d 29 78 bc 16 dc 56 be
       -0.016855052 -0.15344094 -0.015146506 -0.20982394
000370 c4 1b 1f be a5 3f 1a be 67 dd 0b 3e 17 d8 ba 3d
       -0.15537935 -0.15063341 0.13658677 0.09123247
000380 e1 9e 10 3e 79 45 54 bb 20 4d df bd d6 84 b5 bc
       0.14123107 -0.0032390042 -0.10903382 -0.022158068
000390 79 c9 90 3d 49 12 92 3c 50 73 86 bc 39 96 90 bd
       0.07069678 0.017830985 -0.016412407 -0.07059903
0003a0 80 7a 96 bd 48 26 31 be 9e a1 0e bd c2 6d 81 3d
       -0.07347584 -0.1729976 -0.0348221 0.06319763
0003b0 dc d2 d8 3d 3b b9 99 bd 47 36 11 3e e9 75 60 37
       0.10587093 -0.07506033 0.14180861 1.33788935e-05
0003c0 a7 d9 d8 bc 61 bd 93 3c 3a b9 05 be 89 a1 5f bd
       -0.026470972 0.018034639 -0.1305894 -0.05459741
0003d0 83 b0 63 3d cd 75 fb 3b 75 d9 03 ba c7 ae e1 bd
       0.055588257 0.007673955 -0.0005029657 -0.11019664
0003e0 0d b0 13 3e 00 7f b3 bd 7c 2e d8 3d 28 22 27 bd
       0.14422627 -0.08764458 0.10555741 -0.04080406
0003f0 a7 ff 08 be 52 d0 99 be f7 4c 1d be ef 73 43 3e
       -0.13378774 -0.30041748 -0.15361391 0.19087194

lstm.bias_hh_l0 f4 [256]
000000 3a 93 01 3e 4b a5 0b be e2 70 aa 3c 59 35 51 3e
       0.12653819 -0.13637273 0.02080578 0.20430507
000010 21 9a 3c 3d 3b e9 09 3e 92 7b 64 bb 5a e0 13 3d
       0.046045426 0.13467877 -0.0034863693 0.03610263
000020 0d 7e b7 bc d5 77 07 be ba 78 5f ba 10 33 db 3d
       -0.022398973 -0.13229306 -0.00085247646 0.10703099
000030 06 0b ed bd 78 8b c9 3d c4 ad 4e bd d1 4d 74 bd
       -0.11574368 0.09841055 -0.050458685 -0.059644524
000040 29 05 36 3e 1a d1 f3 3d 83 d7 0f 3e 57 9b ca 3c
       0.17775406 0.11905117 0.14047055 0.024732275
000050 f5 88 c9 bc 45 4d 26 bd a1 60 93 3a 41 b0 0b 3e
       -0.024601439 -0.040601034 0.0011244008 0.13641454
000060 9a de ca be 53 e0 74 3d b2 8d 29 3e 42 ac 6b 3d
       -0.39622957 0.059784245 0.16557959 0.057537325
000070 51 be b1 bc e4 d5 87 bd ed b0 f1 3d 3e 15 08 3e
       -0.021697195 -0.06632593 0.11801324 0.13289353
000080 0e d1 70 bb 51 c3 d3 3d a8 64 50 3d 5a ad f2 3c
       -0.00367457 0.10339988 0.050877243 0.029623676
000090 eb 7e f8 3c dc 46 46 3e 71 7d 20 bc 35 24 85 bc
       0.030333957 0.19362968 -0.009795533 -0.016252616
0000a0 ed c7 1d bd 71 ed 2d be 69 8b 11 3e a9 79 2c 3d
       -0.038520742 -0.16985108 0.14213337 0.04210821
0000b0 bf 13 0c 3d 2b 62 23 be f3 22 15 bd fe 78 f2 bc
       0.03419852 -0.15955417 -0.036410283 -0.02959871
0000c0 9b 41 b4 bc 83 8d 2e 3d 7a e5 e4 bd 6e 7d 32 be
       -0.02200394 0.042615425 -0.11176582 -0.1743066
0000d0 2b 3f 20 3e 7a 72 0e be 10 29 20 3e 0e 10 c8 bd
       0.15649097 -0.13910857 0.15640664 -0.09768687
0000e0 79 ae 49 bd 67 7f b9 bc 68 f0 f2 3d b8 0e 8f 3d
       -0.049238656 -0.022643758 0.1186226 0.06985229
0000f0 e1 d9 26 be f4 54 36 3e c9 6c 5b be e5 b6 11 3e
       -0.16294052 0.17805845 -0.21428217 0.14229925
000100 f8 8f f5 bc 18 3c 8c 3d 58 c2 92 3d 86 f4 d0 bd
       -0.029975876 0.068473995 0.071659744 -0.10202889
000110 c0 40 26 3c a8 17 94 bd ea c4 95 bd 34 28 40 3d
       0.010147274 -0.072310746 -0.07312949 0.04691334
000120 a2 29 ae bd 00 29 3c 3c 80 e0 24 bc 30 23 59 bd
       -0.085040346 0.011484385 -0.010063291 -0.053012073
000130 2c 9e 2f 3d 74 b3 dd bd 40 03 57 bd 1c a6 95 3d
       0.042875454 -0.108252436 -0.052493334 0.073070735
000140 06 d2 92 3d b8 e8 c4 bc 8c 2c 65 3d 58 33 77 bd
       0.07168965 -0.02403675 0.055950686 -0.0603517
000150 d0 0c b0 bd 38 8b 15 3d 6c 22 6b bd 4a 5d df 3d
       -0.08596194 0.036509722 -0.057405874 0.10906465
000160 d0 ed 73 3d b2 c5 ce 3d f0 50 9a 3c 72 f8 94 3d
       0.059552968 0.10096301 0.018837422 0.0727395
000170 ae 5a ab 3d 7a b8 b3 3d 14 b6 29 3d c0 58 0f 3b
       0.08366905 0.087754205 0.04143341 0.0021872967
000180 d8 e2 fd bd fc c1 c8 bd fa 3f f7 3d 4e f1 81 bd
       -0.12396783 -0.098026246 0.120727494 -0.06344853
000190 ee 04 ac bd 30 60 80 3c b0 b4 9a 3d 12 b8 e3 bd
       -0.08399378 0.015670866 0.07553995 -0.11119093
0001a0 18 24 a0 3d b0 c7 a7 bd 10 9d 96 3d c8 d1 ea 3c
       0.07819384 -0.08192384 0.07354176 0.028664485
0001b0 3c b5 22 bd 48 dd 88 bc 0c 3e 3a 3d e4 20 a7 3d
       -0.03972362 -0.016707078 0.04546933 0.0816057
0001c0 94 68 f6 bd e6 7d ca 3d 28 c5 e7 bc 38 73 95 bc
       -0.120316654 0.098872945 -0.028292254 -0.018243417
0001d0 7c 58 2a bd 44 e9 1c 3d 40 9d 45 3b d8 6c 94 bd
       -0.04158829 0.038308397 0.0030153543 -0.07247323
0001e0 38 18 a6 bc 6e 35 a6 bd 9c f9 8d bd e0 73 26 3d
       -0.02027522 -0.0811566 -0.06932375 0.04063785
0001f0 d2 51 bc bd f0 a4 11 bc 88 f1 e6 bc de 28 ff bd
       -0.091952935 -0.008889422 -0.028191343 -0.12458967
000200 6d d2 10 be 9a b9 c7 3d 5d 6f ed bb 5e 60 1c 3e
       -0.14142771 0.097521976 -0.0072459416 0.15271136
000210 a8 c3 54 3d bc bd 1d bd 31 4c 07 be 4f 28 83 3d
       0.051944405 -0.038511023 -0.13212658 0.06404173
000220 0f 3b c1 3d 15 dc cc 3d 28 14 de 3c e2 f8 eb bd
       0.09435093 0.10002915 0.02710922 -0.1152208
000230 c0 88 1e bd cc 71 a2 bc 3d ac 41 bd 89 5d c8 ba
       -0.038704634 -0.019829653 -0.0472834 -0.0015286665
000240 a5 52 dc bd 34 6b 1a 3e 51 6b 07 3e 1e 0a 11 be
       -0.10757951 0.15079957 0.13224532 -0.14164016
000250 e3 3b 2d 3e 08 55 2f be fa 79 c6 bc 2f c7 17 be
       0.16917376 -0.1712228 -0.024228085 -0.14822076
000260 3f 4e bb bd 18 ff 30 3e d3 00 ef 3c 01 a7 00 be
       -0.09145784 0.1728481 0.029175198 -0.12563707
000270 dc b9 ce bc 85 10 4b bc 13 0c ec 3d 2c 07 e6 3d
       -0.025235109 -0.012394075 0.115257405 0.11231837
000280 3b 65 f9 3d b4 4f 29 3d 6c 5f 22 3d ce 37 eb bc
       0.12177511 0.041335776 0.039641783 -0.028713133
000290 2e b5 30 3e 10 f5 e6 bc 24 fd a5 3c 00 a8 32 3e
       0.17256615 -0.028193027 0.020262308 0.174469
0002a0 2a 05 ee 3d e0 78 ff bc 33 cb 17 3e cf 39 60 3c
       0.11622079 -0.031185567 0.14823608 0.013685658
0002b0 fa 72 87 3d 0e 05 ad 3c 03 a7 a9 3c b6 09 43 bd
       0.06613727 0.021120574 0.02070952 -0.047616683
0002c0 14 f5 f9 bd 8f 88 3b be 8b d6 b3 bd 87 2d 86 3d
       -0.12204948 -0.18313812 -0.08781155 0.065516524
0002d0 81 7a 93 3d fa 0b 30 3d f3 30 5c 3c 6d 80 c0 bc
       0.072011 0.04298017 0.013439405 -0.023498738
0002e0 a1 38 2f 3e 2e 36 45 3d f9 fc 30 3c f2 96 10 3c
       0.17111446 0.048147373 0.010802501 0.008825051
0002f0 53 f3 e5 bc 1a b9 d2 bc 7c 4b 99 3c 00 70 73 bd
       -0.028070128 -0.025723029 0.018712752 -0.059432983
000300 96 9f ac 3d e0 27 30 3d bf ac 4c 3e f3 57 1f 3e
       0.08428876 0.043006778 0.19987772 0.15560894
000310 ce 61 4d 3d a7 eb 38 3e 25 6c 29 bd 11 ae 24 3e
       0.050142102 0.18058644 -0.0413629 0.16082026
000320 cf 67 55 3e d2 26 96 bc d6 fe 12 bd 86 c0 2d 3e
       0.20840381 -0.018329058 -0.03588756 0.16967973
000330 57 ae 80 3d ea 9d b3 bc 20 ee 7a bc d5 4e bf bc
       0.06283253 -0.021925885 -0.0153155625 -0.02335302
000340 eb 61 14 3d f7 50 1d bd 62 89 1c 3e da 7c 42 bc
       0.036226194 -0.038407292 0.15286782 -0.011870587
000350 54 af 1c 3e 27 95 81 3d 51 21 11 bd 8f c3 1b 3d
       0.15301257 0.06327277 -0.035432164 0.038028296
000360 ee c5 bc 3d 11 2b 2c be e1 c9 1e 3e bf 1b 85 be
       0.092174396 -0.16813304 0.15506698 -0.2599773
000370 19 91 18 bc 47 bb 07 be ef eb 0a bd c7 a3 dd bb
       -0.009311938 -0.13255034 -0.03391641 -0.0067639085
000380 83 d6 b9 3c f6 2f 00 3d e0 a9 70 3d c7 21 8b bd
       0.022685295 0.03129574 0.058755755 -0.06793552
000390 93 46 08 3a 6b 32 24 3d ef c9 35 ba a4 82 14 be
       0.00051985047 0.040087145 -0.00069346925 -0.1450296
0003a0 ae 77 2f be 89 a9 46 3b da 14 4b 3d f3 23 3e bb
       -0.17135498 0.0030313453 0.049580432 -0.0029013127
0003b0 94 b0 e4 3d 31 e7 43 bd fe 77 97 bc 31 07 49 3e
       0.11166492 -0.047827903 -0.018489834 0.1963165
0003c0 06 46 9b 3d 28 e3 e9 3d c2 26 73 3d 08 6b f3 bc
       0.07581715 0.1142028 0.059363134 -0.029714122
0003d0 eb b7 2f bd 69 80 7d 3d 4e aa a9 3d 07 b0 2b be
       -0.042900007 0.06189004 0.08284436 -0.16766368
0003e0 a3 28 51 3d 28 01 06 be 60 b9 e4 3d c3 67 0b 3e
       0.051064145 -0.13086379 0.1116817 0.136138
0003f0 ca cc 91 bd 6e 96 86 be 73 df 60 bd b2 d1 9f 3c
       -0.071191385 -0.26286644 -0.054900598 0.01950917

fc.weight f4 [1, 64]
000000 26 bc 0a be c9 bc 5f 3d 7b b5 8b bd 13 4c 12 3e
       -0.13548335 0.0546234 -0.06821724 0.14286833
000010 60 c8 16 be fa 44 1b be 6f ee c7 3c ef 94 1e 3e
       -0.14724874 -0.15163031 0.024405686 0.15486501
000020 bf ad bf 3d 14 02 45 3d 39 be 92 bd 34 1c 9b bd
       0.09359311 0.048097685 -0.07165188 -0.07573739
000030 a2 c8 6a bd 00 ab 17 be 6d a0 82 3a 3e 6b 6a bb
       -0.057320245 -0.14811325 0.0009966023 -0.0035769488
000040 1c 5e ab bd 04 46 e8 3d fb 07 e2 3d cd a0 03 ba
       -0.08367559 0.113414794 0.110366784 -0.00050212146
000050 6d 75 76 3d 90 fe 3a bd ed 58 1f be 2a fd 26 3d
       0.06017058 -0.045652926 -0.15561266 0.04076878
000060 81 03 c1 bd 80 b5 02 bd 7a 52 ce 3d b1 27 0f be
       -0.094244964 -0.031911373 0.10074325 -0.13979985
000070 3e 1d 37 3b 8a a0 9e 3c fa 3d 28 3e e9 61 09 3e
       0.0027941014 0.01936366 0.16429892 0.13416256
000080 cf 91 08 3e fc 8b 20 bd 55 69 33 3d 86 4d 65 bc
       0.13336872 -0.039196 0.043801624 -0.013995534
000090 a4 a9 a8 3d 65 21 28 3e b0 c7 ea bd 30 ed 1c bd
       0.082354814 0.16418989 -0.114638686 -0.038312137
0000a0 b6 ca 19 3c 24 d6 5c 3d 46 cc 62 3d 38 9a fd 3d
       0.009386709 0.053915158 0.05537059 0.123829305
0000b0 22 f0 0b 3e 17 1d 37 bd 08 d5 0a be cc 97 28 3d
       0.13665822 -0.044705477 -0.13557827 0.04116039
0000c0 d1 a0 00 be ea f7 a1 bd e2 16 85 bd 3b 2b e0 bb
       -0.12561347 -0.07908614 -0.06498505 -0.006841091
0000d0 6c f7 13 3e ba 45 da bc 01 2a 03 be 69 4f b6 3c
       0.14449853 -0.026644576 -0.12808992 0.022254663
0000e0 4a 27 90 3d 32 e2 0e 3b a9 3e 10 3e 07 28 b5 bd
       0.07038744 0.0021802303 0.14086403 -0.08845525
0000f0 52 79 5f 3d 92 03 f7 bf 80 7b f6 3c 83 9b 15 be
       0.05455906 -1.9297965 0.030088186 -0.14610104
